…
        },
        "outputId": "88794ec1-a3e5-44f5-94fb-a73879c3b606"
      },
      "source": [
        "# Model Summary\n",
        "model.summary()"
      ],
      "execution_count": 10,
      "outputs": [
        {
          "output_type": "stream",
          "text": [
            "Model: \"sequential_2\"\n",
            "_________________________________________________________________\n",
            "Layer (type)                 Output Shape              Param #   \n",
            "=================================================================\n",
            "conv2d_5 (Conv2D)            (None, 198, 198, 32)      896       \n",
            "_________________________________________________________________\n",
            "conv2d_6 (Conv2D)            (None, 196, 196, 30)      8670      \n",
            "_________________________________________________________________\n",
            "max_pooling2d_3 (MaxPooling2 (None, 98, 98, 30)        0         \n",
            "_________________________________________________________________\n",
            "conv2d_7 (Conv2D)            (None, 96, 96, 30)        8130      \n",
            "_________________________________________________________________\n",
            "max_pooling2d_4 (MaxPooling2 (None, 48, 48, 30)        0         \n",
            "_________________________________________________________________\n",
            "conv2d_8 (Conv2D)            (None, 46, 46, 30)        8130      \n",
            "_________________________________________________________________\n",
            "flatten_2 (Flatten)          (None, 63480)             0         \n",
            "_________________________________________________________________\n",
            "dense_4 (Dense)              (None, 20)                1269620   \n",
            "_________________________________________________________________\n",
            "dense_5 (Dense)              (None, 15)                315       \n",
            "_________________________________________________________________\n",
            "dense_6 (Dense)              (None, 12)                192       \n",
            "=================================================================\n",
            "Total params: 1,295,953\n",
            "Trainable params: 1,295,953\n",
            "Non-trainable params: 0\n",
            "_________________________________________________________________\n"
          ],
          "name": "stdout"
        }
      ]
    },
    {
      "cell_type": "markdown",
…
